…
# prepare model for fitting (loss, optimizer, etc)\n","model.compile(\n","    loss='categorical_crossentropy',  # we train 100-way classification\n","    optimizer='adam', \n","    metrics=['accuracy']  # report accuracy during training\n",")\n","\n","model.summary()"],"execution_count":11,"outputs":[{"output_type":"stream","text":["Model: \"sequential\"\n","_________________________________________________________________\n","Layer (type)                 Output Shape              Param #   \n","=================================================================\n","conv2d (Conv2D)              (None, 32, 32, 128)       3584      \n","_________________________________________________________________\n","max_pooling2d (MaxPooling2D) (None, 16, 16, 128)       0         \n","_________________________________________________________________\n","dropout (Dropout)            (None, 16, 16, 128)       0         \n","_________________________________________________________________\n","conv2d_1 (Conv2D)            (None, 16, 16, 64)        73792     \n","_________________________________________________________________\n","max_pooling2d_1 (MaxPooling2 (None, 8, 8, 64)          0         \n","_________________________________________________________________\n","dropout_1 (Dropout)          (None, 8, 8, 64)          0         \n","_________________________________________________________________\n","conv2d_2 (Conv2D)            (None, 8, 8, 32)          18464     \n","_________________________________________________________________\n","max_pooling2d_2 (MaxPooling2 (None, 4, 4, 32)          0         \n","_________________________________________________________________\n","dropout_2 (Dropout)          (None, 4, 4, 32)          0         \n","_________________________________________________________________\n","flatten (Flatten)            (None, 512)               0         \n","_________________________________________________________________\n","dense (Dense)                (None, 256)               131328    \n","_________________________________________________________________\n","dense_1 (Dense)              (None, 256)               65792     \n","_________________________________________________________________\n","dense_2 (Dense)              (None, 256)               65792     \n","_________________________________________________________________\n","dense_3 (Dense)              (None, 10)                2570      \n","=================================================================\n","Total params: 361,322\n","Trainable params: 361,322\n","Non-trainable params: 0\n","_________________________________________________________________\n"],"name":"stdout"}]},{"cell_type":"code","metadata":{"id":"yINkJnAkH103","colab_type":"code","outputId":"5b630edf-f560-40fe-af53-d6e337992a46","executionInfo":{"status
…
